algorithm/server/app/model-1/results.pth (torch, 963202 bytes, 20 tensors)

emb_table_question.weight f4 [429, 100]
000000 37 0d 9b bf 21 5b 74 3f 8e 88 8f bf 26 a4 d8 3f
       -1.2113408 0.9545155 -1.1213548 1.6925094
000010 c0 52 de be 9b 37 47 3f 38 d4 97 3f b1 61 90 3f
       -0.43422508 0.7781922 1.1861639 1.1279813
000020 33 77 9e 3e 0d 72 a8 3e 2e 84 29 3f 08 6a 8d be
       0.30950317 0.32899514 0.66217315 -0.27619958
000030 fc 77 8f bf 2d 0f 58 3f bb 6f af be 64 1c 65 3f
       -1.1208491 0.84398156 -0.3426493 0.89496446
000040 96 2a 15 3f b1 7d fb 3e 4d 25 f9 bf 05 90 85 3e
       0.58268106 0.49119332 -1.9464508 0.2608644
000050 e5 37 1e bf 55 2d c0 bf 9e ec 9c bf 66 43 d4 3e
       -0.6180404 -1.5013834 -1.225971 0.4145767
000060 5a 2c ce bd 3e 4b bb 3e 99 22 8b be ad 95 84 3e
       -0.10067053 0.36580843 -0.27174833 0.25895444
000070 32 1d a7 3f 10 38 ec 3e 7c cc ef bf e8 5f 0c bd
       1.3055785 0.46136522 -1.8734279 -0.03427115
000080 db cf 68 bf 58 98 82 be 3c e5 5d bf 60 bd db 3d
       -0.9094216 -0.25506854 -0.8667791 0.1072948
000090 02 5b 7a 3f b2 ed 4b 3f b3 06 a4 3f d7 65 70 3e
       0.97795117 0.7965957 1.2814544 0.23476349
0000a0 d3 e1 50 bf 05 ef 90 bf 44 f0 8b 3e c2 72 d8 bf
       -0.8159458 -1.1322943 0.27331746 -1.6910021
0000b0 3a f0 14 3f c6 3a c0 3a ba 24 31 be 99 e2 01 be
       0.58179057 0.0014665953 -0.17299166 -0.12684096
0000c0 3e b4 b7 3f 2e 98 18 3f 24 2c cf 3f cb 99 cc 3d
       1.435188 0.5960721 1.6185346 0.09990271
0000d0 4b ec d5 3e 92 4c 45 3d 06 05 e9 be fd 3b 32 3e
       0.4178184 0.048168726 -0.45511645 0.17405696
0000e0 e7 be 6c bf 35 17 a4 3e 43 4d 7c bf 49 17 55 3f
       -0.92478794 0.32048956 -0.9855539 0.83238655
0000f0 e2 39 23 3f ff 3b d8 3e 35 4a 1c 3d 9c 11 33 3f
       0.637602 0.42233273 0.038156707 0.69948745
000100 fa 23 09 3f 99 e1 d4 3f e8 7d f6 3e 62 4c a2 bf
       0.5357052 1.6631347 0.48142934 -1.267956
000110 e9 ce 38 3f e7 f4 30 3f 3f 60 1a bf 36 6e 94 3f
       0.7219072 0.6912369 -0.6030311 1.1596134
000120 05 ef 87 bf d8 54 a8 bb 7b 2c e6 bd b4 4a d2 bf
       -1.0619818 -0.0051370673 -0.11238953 -1.6429048
000130 4e 0b 23 3b 65 e2 0b bf 46 44 1d be 7b ca 1a 3f
       0.0024878564 -0.54642326 -0.15358075 0.6046521
000140 80 3f e3 3e f7 35 38 3f a1 fe df bf 64 46 07 40
       0.44384384 0.71957344 -1.7499582 2.1136713
000150 7b 43 4e be bf e1 17 bf 12 4a 32 3f ec 3d 56 3f
       -0.2014293 -0.59328836 0.6964427 0.83688235
000160 41 98 7b 3e 7d d5 08 3f eb e4 26 bf 1a fb 91 3f
       0.24569799 0.5345076 -0.6519305 1.1404755
000170 7f 12 70 3f 70 0b 0c 3f 62 e9 c6 3e b7 f3 1d 3f
       0.9377822 0.5470495 0.38849932 0.61700004
000180 1c eb 09 bf 42 af d5 3f 01 b3 bb bd ab 28 1a 3e
       -0.53874373 1.669411 -0.09165002 0.15054576
000190 ec da d4 bf 16 d9 61 c0 60 12 0e 3f c7 36 90 3f
       -1.662931 -3.5288749 0.5549679 1.1266717
0001a0 df 54 8f 3e 24 7c 88 3f 0b 6a 80 3c d9 ee c5 bf
       0.2799444 1.0662885 0.015675565 -1.5463516
0001b0 4f 5f 12 bf 4c 68 0c 40 88 b4 0a 3f f2 9d 16 40
       -0.5717668 2.1938658 0.5418172 2.3533902
0001c0 57 39 1c 3f 1b c6 9b 3f dd b0 da 3f 4f fb 59 3e
       0.61024994 1.2169832 1.7085224 0.21287273
0001d0 f7 d5 dd bf 5d 18 be 3f da a4 ed bf 5b 59 87 bf
       -1.7330922 1.4851185 -1.8565934 -1.0574144
0001e0 0e ce fb 3f 17 15 e2 3f e8 58 0a c0 f0 5c f7 3e
       1.9672258 1.7662686 -2.1616764 0.48313093
0001f0 a1 bc ee be e6 30 57 bf 69 ea 87 bf 96 c3 a5 bf
       -0.46628287 -0.8405899 -1.0618411 -1.2950313
000200 45 19 8f 3f 95 93 38 40 68 f0 a9 3e 49 60 b5 3f
       1.1179587 2.8840077 0.33191228 1.4170009
000210 90 e7 dc be 55 55 b0 bf 90 f6 1c 3d da fb 8c bf
       -0.43145418 -1.3776041 0.038321078 -1.1014359
000220 e7 bd 6c 3f a6 5a 10 c0 a3 e4 ef bf 46 da ab bf
       0.9247727 -2.2555327 -1.8741649 -1.3425987
000230 60 a7 04 c0 a7 88 37 3e 36 e4 09 c0 6a 13 5d bf
       -2.0727158 0.17923222 -2.154554 -0.8635775
000240 9d e0 4e 3f 5e f4 a6 bf 0c 22 9c bf 0a dc 95 3f
       0.8081148 -1.3043325 -1.219789 1.1707776
000250 64 e0 ca bf a2 bf 03 bf 42 34 e2 3f c4 45 72 3f
       -1.5849729 -0.51464283 1.7672198 0.94637704
000260 13 a7 5b bf 39 09 04 c0 16 66 f1 3f 21 a3 08 bf
       -0.8580181 -2.063063 1.8859279 -0.53373915
000270 5c 48 39 3f 73 33 88 be 05 dc 15 bf 73 a6 ff 3f
       0.72376037 -0.26601753 -0.5853885 1.9972671
000280 04 02 d0 bf 09 35 2f 3f d5 bd 24 3e 15 e1 6c c0
       -1.6250615 0.684403 0.1608804 -3.701238
000290 6d 57 39 3f f2 66 31 bf e1 02 a7 3d 6e 8d bc 3f
       0.72399026 -0.6929771 0.08154846 1.4730661
0002a0 b9 df 41 40 2f d5 b0 3e 38 bd 13 3f 13 26 32 40
       3.02928 0.34537646 0.577106 2.7835739
0002b0 cb 95 cb be 76 b5 a4 be f8 91 15 bf bd 85 1c 3f
       -0.3976272 -0.32169694 -0.58425856 0.6114157
0002c0 5d 40 cd be 22 7e e4 3d c1 ea ce 3f ce 49 56 bf
       -0.40088168 0.111568704 1.6165391 -0.83706367
0002d0 f3 9c 14 3f 63 43 bd 3d 3d 98 de 3e 38 9b de bf
       0.58051986 0.092413686 0.43475524 -1.7391119
0002e0 b7 b3 99 bf 7e 07 00 3f a5 b1 4b 3f 2c ac e8 3f
       -1.200797 0.5001143 0.7956794 1.8177543
0002f0 ad c2 95 bf 73 a7 a2 3f 58 74 4b 3f 09 ff 2d bf
       -1.1700035 1.2707351 0.794744 -0.6796728
000300 0c 6b 71 3f 24 84 ee 3e d7 55 82 3f 17 cd 14 3f
       0.94303966 0.4658519 1.0182446 0.5812544
000310 96 0e f5 bf 40 71 88 bf d3 c4 1e 3f 9b 2d 54 bf
       -1.9145076 -1.0659561 0.6201908 -0.8288209
000320 d3 72 21 bf e2 a4 b3 3d 11 a1 ae bf 67 6b c7 3f
       -0.6306583 0.08771683 -1.3642904 1.5579652
000330 8e 41 fa 3f 0c 38 e6 3e 23 aa 6b bf 7d 2a 8d bf
       1.9551256 0.44964635 -0.92056483 -1.1028591
000340 6f 9f a6 3e 40 13 20 bf b0 ef fd 3e b8 24 7f 40
       0.32543513 -0.62529373 0.4959693 3.9866161
000350 ab be bf 3f 5b ff 30 3f 9e 54 69 bf 0c 21 10 c0
       1.4980062 0.6913964 -0.9114474 -2.252017
000360 99 46 8b 3f 05 15 69 bd ef 1e c4 3e 73 8a dc 3f
       1.088092 -0.05690481 0.3830485 1.7229751
000370 86 e5 d2 3f 88 c6 71 3f df 14 bd bf 2b 90 17 3d
       1.6476295 0.9444356 -1.4771994 0.037002724
000380 db 9a 91 3f 01 85 24 40 ef cd 8a bf 19 0e 66 3e
       1.1375383 2.570618 -1.0844096 0.22466315
000390 cd ee 78 be 79 49 a1 3f 19 ca a9 3f ef c8 90 bf
       -0.24309845 1.2600547 1.32648 -1.131132
0003a0 19 d8 70 40 75 0a e7 bf c1 6e be be e9 94 10 be
       3.7631896 -1.8050066 -0.37193874 -0.14119305
0003b0 de 96 b5 3f 79 27 ff 3e 66 27 8a bf 87 23 8d bf
       1.4186666 0.49834803 -1.0793273 -1.1026467
0003c0 16 98 ca 3d b6 14 95 bd f8 72 03 3e 21 fa 59 3e
       0.09892289 -0.07279341 0.12836826 0.21286823
0003d0 73 a7 1c bf 3a aa 4c 3d 48 c7 91 bf ce be 0b 3d
       -0.6119301 0.04996703 -1.1388941 0.034117512
0003e0 11 a1 16 be 72 0e 2c 40 8d af 10 bf 65 76 99 bf
       -0.1470988 2.6883817 -0.5651787 -1.1989256
0003f0 71 61 9f bd 55 75 6d be 64 9d 3a 40 38 5f 14 40
       -0.07782257 -0.2318929 2.9158564 2.3183117

emb_table_skill.weight f4 [145, 100]
000000 cc c1 de be 81 b7 66 bf 2a 35 06 3f 20 e7 59 bf
       -0.4350723 -0.90123755 0.5242487 -0.85118294
000010 5c 89 7b bf b9 af 98 3f 0b 97 c5 3e c1 45 30 c0
       -0.9825647 1.1928626 0.385918 -2.7542574
000020 7c 76 39 3f 16 21 3e bf 83 36 18 3f 54 f9 d9 3f
       0.7244642 -0.74269235 0.5945818 1.7029214
000030 bb 14 dd bd 2c 41 b6 bf f7 2b c2 be 84 f8 af 3d
       -0.1079497 -1.4238639 -0.37924168 0.085923225
000040 f1 36 86 bf c2 35 0c c0 80 ca d3 3e b4 de e6 be
       -1.0485517 -2.190781 0.41365433 -0.45091784
000050 76 cc d4 be ba 7e 21 bf da 17 72 3f 2f 1e 09 c0
       -0.4156224 -0.63083994 0.94567645 -2.1424673
000060 39 5e 8c 3f 35 90 ad bf eb d6 37 bf 6d e1 95 3f
       1.0966254 -1.3559633 -0.71812314 1.170942
000070 b1 68 af 3f bf 2b cf 3e 83 2b 0e bf 9f 73 79 bf
       1.3703824 0.40463063 -0.55535144 -0.9744205
000080 60 8d 2c bf 4d 4e fa be 59 8c 28 bf 69 cc a0 3c
       -0.6740322 -0.48887864 -0.65839154 0.01962872
000090 1b bf 23 40 df 25 8f 3f 04 e3 ba be cf 0e 73 bf
       2.5585392 1.1183432 -0.36501324 -0.9494447
0000a0 99 54 8f be 67 ac 0c 3f 58 2c 20 c0 1b 10 29 40
       -0.2799423 0.54950565 -2.5027065 2.641608
0000b0 e1 ba 28 c0 56 1a 1d 40 ea 9e 74 3f 91 5b 12 c0
       -2.6364062 2.4547324 0.95554984 -2.2868388
0000c0 33 43 33 3f 19 9d 01 3f 94 17 a8 bd 6f 4d e4 3f
       0.7002441 0.50630337 -0.08207622 1.7836131
0000d0 4b 71 da bf e4 dc 91 3f f2 ae 3d 40 7b 9c e0 3e
       -1.7065824 1.1395535 2.9638028 0.43869385
0000e0 e0 8d d0 be be 62 62 bf 8f ed e9 be c0 59 01 c0
       -0.40733242 -0.8843192 -0.45689055 -2.021103
0000f0 42 dd 5c 3f 8d 9f 94 ba bd b6 78 bf c5 1b 93 be
       0.8627511 -0.0011339054 -0.97153836 -0.28732124
000100 89 da 40 3f 4f c5 16 40 e8 d3 eb 3e 78 db d2 3f
       0.7533346 2.3557928 0.4606011 1.6473227
000110 0b c9 7f 3f 77 66 03 c0 46 8b 83 3f 8f 7b 9e 3f
       0.9991614 -2.053129 1.0276878 1.2381457
000120 ae 1b 8b bc 91 e2 e0 bd 7e 7b bb 3e 63 1d 0c 40
       -0.016980972 -0.10980714 0.36617655 2.1892936
000130 86 b1 7c 3e 17 74 13 3f 9f 7a 7d 3f 84 5b 06 3f
       0.24677095 0.57599014 0.9901523 0.5248339
000140 e5 8b 1f bf 59 04 ae 3f 50 80 5a 3f 96 d8 66 3d
       -0.6232284 1.3595077 0.8535204 0.056358896
000150 ac 82 99 bf fb 9d 97 bf 2f e0 10 3f 2f c3 29 3f
       -1.1993003 -1.1845087 0.56592077 0.6631345
000160 4a 21 11 c0 67 1e a0 3f 82 a1 97 bf bf 84 2e bf
       -2.2676568 1.2509278 -1.1846163 -0.68171304
000170 60 81 f7 3e 18 b5 22 40 2e 1a 2f 3f 97 50 81 bf
       0.48340893 2.542303 0.6839932 -1.0102719
000180 1e fd b8 3e 7c 98 a9 bd 38 6a 75 bf 7c 2f 57 bf
       0.36130613 -0.08281037 -0.958652 -0.8405683
000190 49 6e 19 bf ca b5 17 3f 90 34 f6 bc 5a f1 85 3f
       -0.59933907 0.59261763 -0.03005436 1.046428
0001a0 13 2c 6d 3d 36 43 61 be cb ed 3e 3f 74 16 80 3e
       0.05790336 -0.21998295 0.74581593 0.2501713
0001b0 ef c3 65 3f 23 57 d0 3f 9a 47 43 3f 4b 9d 63 3e
       0.89752096 1.6276592 0.7628113 0.22227971
0001c0 eb 80 aa bf 40 6c e5 3d 6c 22 1b be 8c 1c 07 3f
       -1.3320593 0.11202288 -0.1514985 0.52777934
0001d0 4d 7e b4 bf db d3 d2 3f f5 b2 02 bf e7 a4 c4 3d
       -1.4101044 1.6470903 -0.51054317 0.09601765
0001e0 ba 6e c9 bf fc 85 79 3e c9 6f 80 3f 99 91 2c bf
       -1.5736916 0.24367517 1.0034114 -0.67409664
0001f0 82 76 2f 3f 96 63 8e bf 79 ca 44 3f f9 62 a6 bf
       0.68540204 -1.1124141 0.7687145 -1.2998954
000200 82 57 22 be c9 ca 48 3f 84 8d f6 bd 2d bf 13 40
       -0.15853694 0.78434426 -0.12038711 2.3085434
000210 52 7c 07 c0 d0 07 b0 3f 76 9b 7d bf 83 23 c3 3e
       -2.116963 1.3752384 -0.9906534 0.3811303
000220 16 9a 8a 3f e7 da d2 3f 21 b0 1d c0 7d c9 0c be
       1.0828273 1.6473054 -2.463875 -0.13748737
000230 e5 9f c7 be b8 6e 15 c0 f0 c7 0a 40 72 23 76 bf
       -0.38989177 -2.3348827 2.1684532 -0.96147835
000240 19 a0 cf bf 1c 03 3f 3f ed 29 e2 3e f0 1e a7 bf
       -1.6220733 0.7461412 0.44172612 -1.3056316
000250 c8 07 bf 3f 77 98 97 bf 90 37 49 3f 5b 41 a0 bf
       1.492425 -1.1843404 0.78600407 -1.2519945
000260 99 61 7e be b3 79 01 3e 8a 8c bf 3e 6f 96 13 bc
       -0.24841918 0.12644081 0.3741191 -0.009008034
000270 bf 5a 0a c0 2b b4 c1 3f 57 79 42 3e 4a 49 d4 bf
       -2.1617887 1.5133108 0.189916 -1.6584866
000280 42 94 10 bf c2 f6 53 3f da cf a8 be 77 29 7c 3f
       -0.56476223 0.827984 -0.32971078 0.9850077
000290 fc 87 95 bf 5c a3 6b bf 1d 0d 94 3e 8c 3b f1 3e
       -1.1682124 -0.9204614 0.28916255 0.47115743
0002a0 d0 01 36 bf a3 7d a6 be 69 93 c3 3e 9a 33 ea 3f
       -0.71096516 -0.32517728 0.38198403 1.8296998
0002b0 dc a2 f3 bf f1 34 5f bf 73 b6 9f 3e 98 4b 3c 3f
       -1.9034076 -0.8719016 0.31193885 0.73552847
0002c0 ca a0 01 bf 01 64 cf bf fa db 60 be 46 c7 8c be
       -0.5063597 -1.6202394 -0.21958914 -0.27495784
0002d0 f1 b5 a4 3e 0a c8 62 3f 29 ab 76 3f 7c f2 b6 3f
       0.3217006 0.88586485 0.9635492 1.429275
0002e0 6d af c9 bf c5 47 c2 3f f8 8f 15 c0 1a c4 f6 3e
       -1.5756661 1.5178152 -2.3369122 0.4819649
0002f0 56 fb 94 3f 83 9b 1a c0 a2 98 2a c0 5c f9 d7 3e
       1.1639202 -2.4157417 -2.665566 0.42182434
000300 6f 51 e5 3e f7 1a c6 3e 53 a2 21 c0 d3 ee 10 bf
       0.4478869 0.38692448 -2.5255325 -0.56614417
000310 3b 60 e1 3f 41 58 b1 bf 90 19 ea 3f 00 39 25 3f
       1.7607492 -1.3855058 1.8289051 0.645401
000320 ca 0c 91 bf a1 ae 33 bf d8 35 f6 3f 1f 4c e3 bf
       -1.1332028 -0.7018834 1.9235182 -1.7757605
000330 f4 c3 16 3e b1 eb c4 3f ed f3 15 3f 67 14 1e 3f
       0.14723188 1.5384427 0.58575326 0.6174988
000340 a2 d5 42 bf 37 85 8b 3f 02 de 1a c0 5b 25 2b 40
       -0.7610723 1.0900029 -2.4198003 2.674155
000350 92 ff 04 bf 33 70 1f 3f 61 c5 1d 3f a2 eb 52 be
       -0.5195247 0.6228058 0.616293 -0.205977
000360 31 ae 11 3f 9f 3f 93 3f 91 de 4f bf ae 38 ca 3f
       0.5690642 1.1503791 -0.81198984 1.5798547
000370 50 5b d0 be 83 61 bb be 47 dc 04 be c8 56 19 c0
       -0.40694666 -0.36597833 -0.12974654 -2.3959217
000380 f8 53 a3 3f f1 8b 22 c0 f8 f5 bf 3f bd 74 c3 3f
       1.276 -2.5397913 1.4996939 1.5270001
000390 dc 4f 34 3f 57 c4 b6 bf 2d ef e9 bf 2b 92 11 40
       0.70434356 -1.4278668 -1.8276116 2.2745464
0003a0 a2 1e 6a bf fd 44 59 bd d1 22 52 40 ae 90 77 3d
       -0.9145299 -0.053044308 3.283375 0.06044071
0003b0 47 75 54 3f b5 58 9c be 9a 5e 88 3e 58 30 24 3f
       0.8299145 -0.30536428 0.26634675 0.64136267
0003c0 73 18 17 40 c6 ba 4e 3f f7 96 79 bf 6f 81 ac bf
       2.3608673 0.80753744 -0.9749598 -1.3477
0003d0 e5 da 97 be 7e cc c3 bf a9 8f bb 3e 4c 65 9a 3d
       -0.2965919 -1.5296781 0.36633042 0.07538852
0003e0 b0 71 a1 bd ce 10 e1 bf 54 03 09 bf f5 c0 67 be
       -0.07883012 -1.7583253 -0.53520703 -0.22632201
0003f0 b5 f9 a0 bc b7 8c 82 3f 81 31 34 c0 44 fc af be
       -0.01965032 1.0199193 -2.8155215 -0.3437215

emb_table_response.weight f4 [2, 100]
000000 35 32 11 3f b2 fa 63 be f0 c7 69 3e ff cd 21 bf
       0.56717235 -0.22263601 0.22830176 -0.6320495
000010 7d cd b4 3f e4 89 9b 3e e5 e5 2f bd 07 9e ba bd
       1.412521 0.3037864 -0.042943854 -0.091121726
000020 e1 8d 8f 3d aa 7d 9d bd 56 34 17 3e e2 03 2e be
       0.07009483 -0.07689984 0.14766058 -0.16993669
000030 e6 d9 86 bf 4a 77 49 3d 22 cd 8b 3e 3c 96 03 3f
       -1.0535247 0.04918603 0.2730494 0.51401114
000040 bd ae 29 3e c3 58 ee bd d9 e8 ee be d5 e8 4e 3d
       0.16570564 -0.11638024 -0.46662024 0.050515015
000050 47 2e f1 3e 65 b3 51 bf 7b 03 85 3e 2f 63 63 bd
       0.4710562 -0.8191436 0.25979218 -0.05551451
000060 7f 75 70 3e f4 69 d3 be f3 38 af 3a f7 f6 33 bf
       0.23482321 -0.41291773 0.0013368413 -0.70298713
000070 d8 db cd 3d c8 ce af 3f 32 5d 5c be c8 c1 10 3d
       0.100516975 1.373498 -0.21519926 0.035341054
000080 36 bb 8a 3c de 89 01 3e 0b 36 81 be f6 7c 1e bd
       0.016934972 0.12650248 -0.25236544 -0.03869339
000090 f7 8a 19 be b4 8a 05 be 79 89 f7 3d 0c 0f 6b 3f
       -0.14994417 -0.13041192 0.12086768 0.91819835
0000a0 37 e4 d5 bf 46 9a fb bf a6 2d 51 3f 16 47 ad bd
       -1.6710271 -1.9656456 0.8171028 -0.08460824
0000b0 22 f4 2f 3f 57 8e 5f be b7 05 36 3e 25 ed 7b bd
       0.6873189 -0.21831642 0.17775618 -0.061505456
0000c0 02 18 97 be c7 f0 97 3f 13 df 2a 3f 75 66 22 3f
       -0.29510504 1.1870354 0.66746634 0.6343759
0000d0 ec d6 31 be 00 81 e2 3e a0 57 1e 3e 76 d4 ff bd
       -0.17367142 0.44239044 0.15463114 -0.124916956
0000e0 0f b4 9e be ce 3a d4 3e db 4d 21 3e ff 14 4b bf
       -0.3099675 0.41451114 0.15752356 -0.7932891
0000f0 d7 20 18 40 6a 0e 83 bf a9 27 81 bf 1d 4b 1b be
       2.3770044 -1.0238774 -1.0090228 -0.15165372
000100 0c e6 ee ba 86 38 12 be aa 90 a9 be 03 7e b9 be
       -0.0018226518 -0.14279374 -0.33118182 -0.36228952
000110 45 55 ef be d1 a4 12 be b9 dd 30 3e a3 bc c0 3f
       -0.46744743 -0.14320685 0.1727208 1.5057567
000120 9f 6f d6 bd 7a c5 34 3e 61 ba 4a bf 31 3d 2e be
       -0.10470509 0.17653456 -0.7919064 -0.1701553
000130 45 11 8a bf eb e2 45 3f 44 5e 29 3e dc 8e 1f 3c
       -1.078652 0.77299374 0.16539866 0.00973865
000140 f7 1a 2a be a4 ac ee 3d 14 39 de 3d 3d a7 f6 3e
       -0.16611849 0.11654022 0.108507305 0.48174468
000150 68 6b a9 bd 35 91 a3 be 0a fb bf bc 7a aa 49 bf
       -0.08272439 -0.31946722 -0.023435134 -0.7877575
000160 53 81 5e 3f 6a 19 10 3f bd ab 8c be 8e cf 9c 3d
       0.86916083 0.5628878 -0.27474776 0.076567754
000170 e2 60 af 3e 83 69 7b bd 4e 4c bc be cd 23 21 3e
       0.34253603 -0.06137992 -0.36776966 0.15736313
000180 3d d2 b2 3e e3 f2 21 be d0 45 ce bd 57 3b 02 3f
       0.34926024 -0.1581531 -0.100719094 0.50871795
000190 d4 3e 26 be 21 2b 39 be 59 94 32 bd 85 17 45 3d
       -0.16234905 -0.18082859 -0.043598507 0.048118133
0001a0 f8 f8 c3 be b1 e2 88 bd 1d c4 88 3e 72 67 c9 be
       -0.38275886 -0.06683863 0.26712123 -0.39336735
0001b0 a1 37 98 bd dd 44 a5 bd 17 c0 8a 3e 46 5f 27 be
       -0.07432485 -0.08069775 0.27099678 -0.16344938
0001c0 67 ef 06 bb 9a 27 d8 bf a2 6e c3 3d e8 5e b4 3d
       -0.0020589472 -1.6887085 0.09542586 0.088071644
0001d0 63 3d 6d bd 4b c1 19 3e 5d c4 0e 3f cb 7d 32 3e
       -0.05791987 0.15015142 0.55768377 0.17430799
0001e0 5f 25 f0 3e 93 02 b5 bc 66 f2 89 bd 14 7b 09 be
       0.46903512 -0.022095954 -0.06735687 -0.13425857
0001f0 96 3e a0 be af 0d be 3f 22 fb 1c 3d 0a 4a 36 3e
       -0.3129775 1.4847926 0.038325436 0.17801681
000200 10 86 11 be fb 62 11 bf 50 e2 12 be 38 7b b0 3e
       -0.14211297 -0.5679166 -0.14344144 0.34469008
000210 3a c6 a3 3d bc 7f 8c 3e 65 9f 29 3d 1a a7 b5 bc
       0.07996793 0.27441204 0.041411776 -0.022174407
000220 61 49 1c be d8 bf 09 be b6 3d de be 51 94 f8 bd
       -0.15262367 -0.13452089 -0.43406457 -0.12137664
000230 ac 97 f9 bd 44 5f 0b 3c 52 b0 ee be d4 25 5e 3f
       -0.12187132 0.0085066 -0.46618897 0.8677647
000240 7a 70 08 be 58 2a bf 3e c9 fc 16 bf 52 45 70 be
       -0.13324156 0.37336993 -0.5897947 -0.23463944
000250 b0 30 77 3e 87 09 9d bf 02 e2 d6 bb d2 76 33 bd
       0.24139667 -1.2268533 -0.006557704 -0.043814488
000260 28 8b 7f be 8a 16 2f bf aa f1 bc 3d ad 75 d8 bd
       -0.24955428 -0.68393767 0.09225781 -0.1056932
000270 cb ea f7 bd 0a 32 dc bc ec de 94 3e da 23 ec bd
       -0.1210533 -0.02687933 0.29076326 -0.11530276
000280 fd 64 8a 3d af 41 0d 3e 60 4d 2b 3d 33 89 43 3f
       0.06757543 0.13794588 0.041821837 0.76381224
000290 d6 8a d4 bd da b7 c1 3d d3 4a 25 3d 88 94 3b 39
       -0.10378043 0.09458895 0.04035456 0.00017889042
0002a0 4e 2a e7 3d 01 ec d7 bd f8 0a 0b 3e f2 64 53 be
       0.11287366 -0.10543061 0.13578403 -0.20643976
0002b0 e0 c5 6a 3f a3 2c 71 3e b2 01 0b 3e 02 9b 16 be
       0.91708183 0.23552184 0.13574865 -0.14707568
0002c0 4c 11 b2 3c bc 36 4d 3e f4 c1 ad 3d c9 fb 4a 3d
       0.021736763 0.20040411 0.08484259 0.049556527
0002d0 f0 19 6e 3c f8 ed 6b 3e 27 70 2a 3e fe 0a f0 be
       0.014532551 0.23039997 0.16644345 -0.46883386
0002e0 ee 63 89 3d 0a 3e a4 3e 69 00 ed bd ce 29 6c 3f
       0.06708513 0.32078582 -0.11572344 0.9225129
0002f0 ee 2a 87 be 27 50 56 bf 07 93 45 bd 28 da 45 bf
       -0.2639994 -0.8371605 -0.04823592 -0.77286005
000300 8a 68 89 be 4c 00 bb bd 66 98 38 3d e4 95 16 3e
       -0.2683757 -0.09130916 0.045067213 0.14705616
000310 b7 72 b0 3d 1b 05 ac 3e 2f 50 8b be 85 49 8c 3d
       0.0861563 0.33597645 -0.27209613 0.0684996

lstm_cell.weight_ih f4 [400, 200]
000000 0f 51 07 3f 99 23 96 bf 43 f2 a6 3f b1 3f 7c 3f
       0.5285806 -1.1729614 1.3042682 0.98534685
000010 9a fb 41 3f 6d ce fc 3e fc 6d 25 3f 7d b5 57 bf
       0.7577454 0.4937624 0.6462095 -0.84261304
000020 f7 ce 26 be 64 7d 84 3f 42 ed a7 be f2 96 19 3e
       -0.16289888 1.0350766 -0.327982 0.14998987
000030 87 98 d1 bf 7d 5a fb be df f0 b2 bf 45 a9 d0 be
       -1.6374673 -0.49092475 -1.3979758 -0.40754142
000040 9c 7f 27 bf eb de fa 3a 8b c7 e7 be f7 6d a9 bf
       -0.6542909 0.0019139921 -0.45269427 -1.3236684
000050 23 79 fe bd 9b b3 c5 3e f9 83 f1 bf b3 0b 3d 3d
       -0.12425449 0.3861359 -1.88684 0.046153735
000060 69 4a b0 be 94 82 cc be 09 77 88 3e 72 f2 6b 3e
       -0.3443177 -0.39943373 0.26653317 0.23041704
000070 bf 0f a9 3f 6d 07 82 3f de 23 e8 3f 5b 4c e7 be
       1.320793 1.0158516 1.8135946 -0.45175442
000080 ff 45 da bf 17 ae 35 3f b3 43 bf bf ea 98 b6 bf
       -1.7052611 0.70968765 -1.4942535 -1.4265416
000090 7b ac 2a be 06 69 87 3e 15 12 84 3f 36 d0 59 be
       -0.16667359 0.26447314 1.0318018 -0.21270832
0000a0 3b 55 06 bf dc 75 3b bf 7b 24 c3 3e 55 14 c8 be
       -0.524738 -0.73226714 0.3811377 -0.39078012
0000b0 e0 fb af bf 68 7e 48 3f 73 c7 0c be f0 fb 37 3e
       -1.3748741 0.7831788 -0.13747959 0.179672
0000c0 f9 ec 7b 3f 6c 88 95 3f b8 61 00 3f 16 5c 6e bf
       0.98408467 1.1682258 0.50149107 -0.9310926
0000d0 83 44 0c c0 03 50 9d 3f d3 68 cd be 14 39 d5 3d
       -2.1916816 1.2290043 -0.40119037 0.104112774
0000e0 12 73 3a bf b1 58 a2 3e df 4d 91 be 3b 44 52 be
       -0.72831833 0.3170829 -0.28379723 -0.2053384
0000f0 ec d3 37 3f e6 98 28 3e e9 75 96 3e de 30 16 40
       0.7180774 0.16464576 0.29386833 2.3467326
000100 f0 76 ae 3e e0 e5 bb bf 52 5d 13 bf d7 1b 20 3f
       0.34075117 -1.4679527 -0.5756427 0.6254248
000110 c2 3f 9d be 3c 33 dc be bf 6e f6 bd 46 f0 df bf
       -0.30712706 -0.4300784 -0.12032842 -1.7495201
000120 db 31 dd 3e b7 61 68 3f e6 8b c1 bf f1 a3 f6 3d
       0.432021 0.907741 -1.5120819 0.12042988
000130 fe 89 e8 3e 41 ba 45 3f f7 bc a5 3f f0 95 5a bf
       0.4541778 0.77237326 1.2948292 -0.85385036
000140 9b a0 0e 3f c7 b5 5b 3f cc d0 42 3e 3a 51 0c 3f
       0.55713814 0.85824245 0.19024962 0.5481144
000150 e8 58 63 3e 77 6e b6 3f 2a ae da 3e b6 53 37 bd
       0.22201884 1.4252461 0.42711002 -0.044757567
000160 53 25 23 3f 12 23 e2 3e b6 a8 25 3f 45 2f 17 40
       0.6372883 0.44167382 0.6471056 2.36226
000170 2d 13 c5 3f 23 23 f0 be 0f ab 96 3f e2 4b c4 3e
       1.5396477 -0.46901807 1.1770953 0.38339144
000180 e7 ad 30 be d2 04 a9 be 29 0c 83 3f 5b e9 6d bf
       -0.17253838 -0.3301149 1.0238086 -0.929342
000190 32 b0 81 be 97 c6 27 be 25 2d 7d be d0 bb 83 3e
       -0.2532974 -0.1638435 -0.24724253 0.25729227
0001a0 88 6a 81 be 7f 22 98 be f5 73 c0 3e 0c 7d b2 be
       -0.2527659 -0.29713818 0.37588468 -0.34861028
0001b0 43 b9 5a 3d 87 7c fe bd 77 c8 2c 3f 1a 41 81 be
       0.053399336 -0.124260955 0.67493385 -0.2524498
0001c0 23 d4 3f 3e 17 92 ab be 17 99 d9 bc 01 5d f5 bd
       0.18733267 -0.33509895 -0.026562257 -0.1198063
0001d0 8d a6 9e be 23 e2 66 3e 2c 5e cb 3e bf 26 9a 3e
       -0.30986443 0.22547202 0.39720285 0.30107686
0001e0 3c e1 8a 3e 6a b8 19 3e 1e ad 88 3d f0 de 94 be
       0.27124965 0.15011755 0.066736445 -0.29076338
0001f0 73 45 c8 be 6e b0 e9 3e 20 6a 99 3d 89 79 8a 3e
       -0.39115486 0.45642418 0.07490945 0.2704585
000200 04 86 e4 bd a0 a6 af be e0 c6 b3 bd 41 72 cb 3e
       -0.11158374 -0.34306812 -0.08778167 0.39735606
000210 64 e2 8d 3e 74 fb dd 3d 95 55 71 3e 89 6b 27 3e
       0.27711785 0.108389765 0.23567803 0.16349615
000220 7b 79 f5 bc dc a9 97 be 9f 01 ad be 0f de 99 be
       -0.029965153 -0.2962178 -0.337903 -0.3005223
000230 0f fc 8b 3e 2e 3d 85 3e 84 23 cb be b8 54 a0 3e
       0.27340743 0.2602324 -0.39675534 0.31314635
000240 ee 8c 86 be 76 fa d7 3e 53 f5 bc be aa ad da bd
       -0.26279396 0.42183274 -0.36905918 -0.10677655
000250 55 6a b5 3e eb 55 b9 be 10 a9 ff bd a7 b8 32 be
       0.35432687 -0.36198363 -0.12483418 -0.17453252
000260 44 22 13 bf 9d b2 a1 be e1 b7 3d 3e ac 6e 35 be
       -0.5747416 -0.31581584 0.18527175 -0.17717999
000270 bf 92 0c bd 0c 81 76 be 62 78 4f 3f 74 8b 58 3e
       -0.034319635 -0.24072665 0.81043065 0.21146947
000280 b4 cc 36 be 39 a8 58 3e c4 86 9f 3e 87 1b bc 3e
       -0.17851526 0.21157922 0.31157506 0.36739752
000290 4d 44 3c be 85 fa a7 bd 21 81 62 3e c1 49 00 3e
       -0.1838543 -0.0820208 0.22119571 0.12528135
0002a0 39 0d 50 3e 0d 6f 09 be 93 58 5b 3e 9b c6 96 be
       0.20317544 -0.13421269 0.21420507 -0.294484
0002b0 03 6a b5 3e 55 b0 49 3f 1a c7 9c 3e 44 24 1d be
       0.35432443 0.78784686 0.30620652 -0.15345865
0002c0 c4 4c 88 3e 22 71 10 be ac e0 88 3e 26 d0 09 3e
       0.26621068 -0.14105657 0.2673391 0.13458309
0002d0 17 14 51 bf c1 43 39 3d 10 a1 c8 bc 7f 6c db be
       -0.8167128 0.04523063 -0.024490863 -0.42856213
0002e0 34 12 cb 3d ce 53 d5 3e 38 75 5b be 9d ce ba 3e
       0.09915581 0.416655 -0.21431434 0.36485758
0002f0 27 e2 99 be 3f 0d ae be 65 78 4f 3e b1 46 a1 be
       -0.30055353 -0.3399448 0.2026077 -0.31499246
000300 d4 06 dc be 55 3c 31 3e 60 79 04 3e 9b 6a bb 3e
       -0.4297396 0.17308171 0.12936926 0.3660477
000310 77 05 b0 bc ff fc 96 3e 46 1f c4 be 1a af a0 bd
       -0.02148698 0.29489896 -0.3830511 -0.07845898
000320 f1 91 44 bd 65 9c 8d 3a 56 bb a0 3d ba 51 61 3e
       -0.047990743 0.0010804055 0.078482315 0.22003832
000330 21 01 15 bd f6 92 96 bd ef 09 42 3a 97 5d 3f be
       -0.03637803 -0.07352249 0.0007401993 -0.18688045
000340 ae bd ea 3d 31 de 4b 3e 06 71 ab 3d 84 58 05 bd
       0.1146196 0.19908978 0.08371167 -0.03255512
000350 de d1 3a bd e2 6e a8 bd e8 6d 62 3e 84 60 d7 3e
       -0.0456103 -0.08224274 0.22112238 0.42065823
000360 dc d3 44 be 0b 8f be 3d 31 40 af 3e 7d 24 91 3d
       -0.19221443 0.09304627 0.34228662 0.07087038
000370 b1 25 4f be bf ad 2e 3c 9a a1 09 be c2 83 a8 be
       -0.20229222 0.0106615415 -0.13440552 -0.32913023
000380 5a 21 b0 bd cf b8 27 be ad 69 0a 3c b8 54 cd bd
       -0.08600111 -0.16379093 0.008448047 -0.100259244
000390 8b 11 be bd 87 32 1c bd a1 bb af 3e 25 e5 92 3e
       -0.0928069 -0.038134124 0.34322837 0.28690448
0003a0 dd 40 28 3d f4 f2 8e bc 3f 36 94 3c a0 10 b6 3e
       0.041077483 -0.017449833 0.018092273 0.3555956
0003b0 a6 89 03 3e 6b 8f 68 3d 99 71 cc ba e5 a6 74 bd
       0.12845477 0.0567774 -0.001559782 -0.059729476
0003c0 00 66 27 be 70 b7 f5 bb 57 33 20 be 18 9f 77 bd
       -0.16347504 -0.007498674 -0.15644585 -0.060454458
0003d0 b3 e8 43 3e a9 e2 82 ba b1 b7 13 3e 0c 27 27 3b
       0.19131736 -0.0009985763 0.14425541 0.0025505451
0003e0 5d e7 91 3c 54 38 bc bd 76 cd 40 3e 55 7e 30 be
       0.017810518 -0.09190431 0.18828377 -0.17235692
0003f0 91 33 eb bd 04 e5 09 bd 82 b9 f1 bd 4c dd d1 3d
       -0.11484445 -0.033665672 -0.11802961 0.10247287

lstm_cell.weight_hh f4 [400, 100]
000000 dd 53 b0 3d 29 be b9 3d fe 16 2b 3d 8b 96 c1 bd
       0.08609746 0.09069473 0.041769974 -0.09452542
000010 ba 78 4e 3d 98 b2 5b 3c 08 16 a4 bc 6e be a0 bd
       0.050408103 0.013409279 -0.020030037 -0.078488216
000020 f4 a4 cd 3c fa 90 0b 3d 31 58 8e 3d a2 d5 72 3d
       0.02510307 0.034073807 0.06950415 0.059285767
000030 02 5d 8f bd 4c 01 9c 3c 77 aa c1 3d ec ec d2 3c
       -0.07000162 0.019043587 0.09456342 0.025747739
000040 ed f0 1f bd 2a 23 29 bd c0 a8 4b bc b0 92 9a bd
       -0.039048124 -0.0412933 -0.01243037 -0.0754751
000050 a1 d7 c0 3d b1 6b c1 3d c0 f6 f0 3a 1d fd 4d bd
       0.09416128 0.09444369 0.0018384084 -0.050290216
000060 22 b5 48 3d 34 5d 90 3c 93 68 4e bd d0 00 a7 bb
       0.049000867 0.017622568 -0.0503927 -0.0050965324
000070 69 0a 81 3d 3c 50 f6 3c c2 43 41 3d f0 10 cc bd
       0.06300814 0.030067556 0.04718376 -0.09964168
000080 12 3a 90 bd 85 50 c1 3d 66 b3 43 3d 0a ad 03 bd
       -0.07042326 0.09439186 0.04777851 -0.032147445
000090 10 b2 42 bc d1 94 9b 3d 88 6c 83 bd 81 04 a0 3d
       -0.011883274 0.07596744 -0.06417185 0.07813359
0000a0 e9 48 b1 3d 87 79 53 bd f3 d8 89 3d 1f 79 c0 bd
       0.08656485 -0.05162957 0.06730833 -0.09398102
0000b0 b0 d7 f3 bb e0 27 df bb ac 1c 90 bc 96 1b 43 3d
       -0.0074414834 -0.0068101734 -0.017591797 0.04763373
0000c0 fe 33 03 3d e3 98 c5 3d e1 6b 9e 3d d7 e9 47 bd
       0.032032005 0.096483015 0.0773542 -0.04880699
0000d0 30 e1 a3 bd 58 14 61 bc 28 c2 4c bc c8 8f c1 bc
       -0.080019355 -0.0137377605 -0.012497462 -0.02362813
0000e0 f7 00 a6 3d 10 98 1e bd a0 1a a5 bd 50 bf 17 3c
       0.08105653 -0.038719237 -0.08061719 0.009261921
0000f0 e0 af d0 bb 42 ad 68 3d dd cf 94 3d d8 66 fb bc
       -0.006368622 0.056805857 0.07266209 -0.030688688
000100 55 ed 87 3d 65 24 a7 3d 14 15 a8 bc d2 d9 3c 3d
       0.06637064 0.081612386 -0.020517863 0.046106167
000110 07 4a 9e 3d 54 7d a4 3c 88 12 e6 bc c8 3e 88 bd
       0.07728963 0.020079292 -0.028085008 -0.066525996
000120 e7 c7 32 bd 0f a9 91 3d 44 b4 d6 3c cd 7f 85 3d
       -0.043647673 0.071123235 0.026209004 0.06518517
000130 14 72 9e bc b4 cb 96 3c 28 03 cc bd 63 67 ac bd
       -0.019341506 0.01840768 -0.099615395 -0.08418157
000140 de 02 61 3d 32 6e a8 bd 8d b6 28 bd a0 2e b4 bd
       0.054934375 -0.08224143 -0.04118972 -0.087979555
000150 e5 b0 83 bd f9 b0 a5 3d 0d 46 7b bd 95 ac bc bd
       -0.06430224 0.080903955 -0.061346103 -0.09212605
000160 54 a8 d4 3c d8 82 b5 3c 40 57 5e bc 43 12 b5 3d
       0.025959171 0.022157118 -0.013570607 0.08841374
000170 60 ea 1a bb a8 0a e5 bc a2 f0 6c 3d 0f 6c ab 3d
       -0.0023638234 -0.027959183 0.057846673 0.0837022
000180 2e d3 3a 3d fc cd eb 3c d2 26 45 3d 30 54 c2 3b
       0.045611553 0.028784744 0.048132725 0.005930446
000190 d8 4b 3d 3c c4 83 dd 3c 35 b8 bb 3d 40 7f 2b 3c
       0.011553727 0.02704037 0.09165994 0.0104673505
0001a0 55 c5 a2 3d 63 5e 3b bd c0 b4 36 bd c0 9a 83 bc
       0.07947794 -0.04574431 -0.04460597 -0.016065001
0001b0 a0 8d cf bc a0 e8 24 3b 7b 07 b9 bd 72 45 14 3d
       -0.025336087 0.002516307 -0.0903463 0.03619904
0001c0 82 6a 8d bd a0 ab 20 3b f6 dc 48 3d fb 5b b6 bd
       -0.069050804 0.002451636 0.04903885 -0.08904263
0001d0 de dd 70 3d 88 b8 91 3c 5a 35 0d bd 00 86 76 bb
       0.05880534 0.017788187 -0.03447471 -0.0037616491
0001e0 68 1e 2b bc 57 d1 28 bd ba b0 1d bd 00 88 b0 b8
       -0.010444261 -0.041215267 -0.038498618 -8.417666e-05
0001f0 f7 a9 9c 3d f3 59 79 bd 61 0b ab 3d 0a ca 1b bd
       0.07649606 -0.060876798 0.0835178 -0.038034476
000200 40 bf 00 3c bb 81 96 bd 13 e7 72 bd 72 04 33 3d
       0.007858098 -0.07348963 -0.0593024 0.04370541
000210 b2 f5 95 bd 60 c5 9a bc 88 44 f9 bc 78 69 97 bc
       -0.07322253 -0.018892944 -0.030428186 -0.018482909
000220 c6 01 3f 3d fe 81 44 3d 07 80 a2 3d 8c 0f a5 bc
       0.04663255 0.047975533 0.079345755 -0.020149015
000230 76 2c 24 3d 43 37 a9 bd f0 d7 22 3c 10 75 53 bc
       0.040081464 -0.082624935 0.009939179 -0.012906328
000240 18 1f b6 3c 80 01 42 bc fa 5f 5b bd c5 d2 c0 3d
       0.022231624 -0.011841178 -0.053558327 0.09415201
000250 7b 27 b8 bd a8 0d 97 bd 71 d8 a1 3d 03 9e 99 3d
       -0.08991905 -0.073756516 0.07902611 0.075008415
000260 f0 24 44 bc 60 5c 3b 3b a2 f4 1f 3d a2 98 03 3d
       -0.011971697 0.0028588995 0.03905166 0.032127984
000270 ac a8 bc 3c 8c b5 ff 3c 92 2c 77 3d ab 03 90 3d
       0.023029648 0.031214498 0.06034524 0.070319496
000280 a2 5f 6c 3d 17 9b c9 bd 2c 8a fc bc b0 f0 79 bc
       0.05770839 -0.09844034 -0.030827604 -0.015255138
000290 f6 64 91 bd e8 fd bf bd a5 16 c5 3d 95 a6 98 3d
       -0.07099335 -0.09374601 0.0962346 0.07453648
0002a0 0e f4 44 3d 78 0a 8a bc c0 46 3b bc ee 27 4a 3d
       0.04808431 -0.016850695 -0.011430442 0.049354486
0002b0 44 f4 d3 3c 3e 14 8d bd 65 5e 88 3d 40 8c 8e bd
       0.02587331 -0.068886265 0.06658629 -0.06960344
0002c0 58 d6 28 3c fe 85 a2 bd 0b 59 97 3d 9e 37 25 3d
       0.01030501 -0.07935713 0.073900305 0.040336244
0002d0 0b 49 ad 3d 1d 81 2d bd 9e 7e 9a bd f0 6d 1b bd
       0.084611975 -0.04235946 -0.075436816 -0.03794664
0002e0 8d f4 b0 bd 40 a1 0d 3c da 7b 4b 3d 90 f5 3a 3c
       -0.08640394 0.008644402 0.04967866 0.011411086
0002f0 ad 18 64 bd 5a 00 7c 3d c4 1a e4 3c 0e 39 32 3d
       -0.055687595 0.061523773 0.027844794 0.043511443
000300 c1 2b ab 3d c0 22 93 ba f8 3e 85 3c 37 1e 7d bd
       0.08357955 -0.0011225566 0.016265377 -0.061796393
000310 aa 83 4e 3d c0 59 6b bc a0 cb 4a 3b 14 f6 99 bc
       0.050418533 -0.01436466 0.0030944124 -0.018794097
000320 08 ae a0 bc 54 d8 f2 bc c0 c5 1b bb 00 55 7a 3b
       -0.019614235 -0.029644169 -0.0023768991 0.0038197637
000330 6d bc c8 bd 80 cd 5c bd 19 7f a2 3d ea 3f 52 bd
       -0.09801564 -0.053906918 0.07934398 -0.051330484
000340 87 78 86 3d ba df 27 bd e0 17 ae bd c6 6f 7e 3d
       0.065659575 -0.040984847 -0.085006475 0.062118314
000350 9d e4 c0 bd 00 ce 71 bb 7d 57 9a bd b0 c1 31 bc
       -0.094186045 -0.0036896467 -0.07536218 -0.010849401
000360 e1 50 9e 3d b6 e5 8e bd 80 9e 42 bc 18 f8 3a bc
       0.0773027 -0.06977408 -0.01187861 -0.011411689
000370 ec d7 85 3c 20 0e da 3b 40 65 ed 3a 49 78 a2 3d
       0.016338311 0.006654516 0.001811184 0.07933099
000380 b2 60 42 3d 7c e0 d2 3c d3 29 b2 3d cb 37 b4 3d
       0.047455497 0.025741808 0.086993836 0.08799704
000390 72 1a 8d bd f8 d8 92 3c 80 d2 2e bd 18 25 3b 3c
       -0.0688981 0.017925724 -0.042681217 0.011422418
0003a0 0d 78 cb bd 45 54 b4 bd 2b c7 9b bd ca 67 00 3d
       -0.09935007 -0.08805136 -0.07606348 0.03134898
0003b0 6d ce c6 bd 67 33 4b bd 56 51 63 3d 55 9b 96 3d
       -0.09707341 -0.049609568 0.05549749 0.07353846
0003c0 2b 26 c0 bd a4 cd ff 3c 40 10 12 bb 4f 1e 94 3d
       -0.0938228 0.031225987 -0.0022287518 0.072323434
0003d0 d0 25 0e bc 00 7c 13 3c 79 47 b2 3d 46 a8 48 3d
       -0.008676007 0.009001732 0.087050386 0.048988603
0003e0 e8 80 3d bc 62 d3 24 3d 60 09 32 3b 55 8d ab 3d
       -0.011566378 0.040240653 0.0027166232 0.08376566
0003f0 dc 32 fa 3c 57 c0 9e 3d da 11 64 bd 5d 63 8c 3d
       0.03054183 0.0775153 -0.055681087 0.068548895

lstm_cell.bias_ih f4 [400]
000000 bf b9 d9 3d 0c 15 b3 3c 99 51 d0 3d 3d 2a af 3f
       0.106311314 0.021860622 0.101718135 1.3684765
000010 51 c3 ac be 7d ae a3 3e cb 3b 27 bf eb 87 cb bd
       -0.33742765 0.31969061 -0.6532561 -0.09938034
000020 40 76 8b 3f 3b 0c c2 bf 1c 21 1d 3f 28 a6 a1 bf
       1.0895462 -1.5159982 0.61378646 -1.2628832
000030 e1 7f 83 bf 62 92 eb be ef 19 d9 be c9 a2 a9 bc
       -1.02734 -0.4601012 -0.42402598 -0.020707505
000040 a6 01 58 3f 2a 72 89 3e b0 ba 5b 3e 82 e4 a0 3e
       0.84377515 0.26844913 0.21457934 0.31424338
000050 14 15 9e be 21 17 20 bf f1 5a 86 bf 4c 26 47 3f
       -0.30875456 -0.6253529 -1.0496503 0.7779281
000060 3e 6f b5 bf f7 ce 8c 3f bd 14 d8 bb ea b7 86 3e
       -1.4174573 1.1000661 -0.006594269 0.2631219
000070 2f 43 36 bf 97 f6 d3 be 5b ef 7c be 46 de 01 bf
       -0.71196264 -0.4139907 -0.24700682 -0.5072979
000080 07 01 92 3f a8 f6 0f 3e 23 58 dd 3c 22 77 a9 bd
       1.1406564 0.14058936 0.027019566 -0.08274676
000090 39 1d 71 bf d6 b5 82 3e 21 6c 9c 3f 2c 8f 1f bf
       -0.94185215 0.25529355 1.2220498 -0.6232784
0000a0 26 2a a9 3f e2 74 d7 3e 5b d1 9c be f5 bc 48 bf
       1.3215988 0.42081362 -0.30628476 -0.78413326
0000b0 01 aa 2b 3f 31 2d 89 3f 20 e8 c1 be 5b 13 98 3e
       0.6705628 1.0716916 -0.3787241 0.29702267
0000c0 7c c4 37 3e e0 b2 49 3d a2 76 53 3d ab b8 ba be
       0.17946047 0.049242854 0.05162681 -0.36469015
0000d0 da e5 a4 be ba a9 79 bf a3 ec 61 bf 6d 84 29 bf
       -0.32206613 -0.9752461 -0.88251704 -0.6621769
0000e0 49 8b 4e be c3 e3 15 3f 81 c0 87 bf 36 05 ba 3e
       -0.2017032 0.5855066 -1.0605623 0.363321
0000f0 77 bd 33 bf 58 2c c7 be 44 2f 8f bc 36 aa 60 bf
       -0.70210975 -0.3890102 -0.017478593 -0.8775972
000100 3c 68 1d 3f 42 2f 39 3f f0 c4 47 bf b6 2d d9 3d
       0.61487174 0.72337735 -0.7803488 0.10604422
000110 5c 02 c6 3e c5 04 8b 3f 8c b3 1c bf 28 bc 19 bf
       0.38673675 1.086083 -0.61211467 -0.6005273
000120 1e e9 e3 3e 6b b2 ca 3e 9c d9 3a 3f 82 d3 75 bf
       0.44513792 0.39589247 0.72988296 -0.9602586
000130 b9 f3 87 3f f3 00 cf 3f 16 d6 69 3f af d2 6d be
       1.0621253 1.6172165 0.91342294 -0.232249
000140 4b 38 36 be 65 cf 74 bd d8 7a 38 3e da ae 55 3e
       -0.17794912 -0.0597681 0.18015611 0.20867482
000150 65 1b 2e 3f 7c a2 86 3e 4c 0b 0a bd d2 69 2c bf
       0.6801055 0.2629584 -0.03370218 -0.6734897
000160 52 4b 9d be 60 84 6a 3f f6 1a 62 3f 93 96 f4 3d
       -0.30721527 0.9160824 0.8832239 0.11942782
000170 c0 d2 7f 3e 6f 92 06 be 89 61 bd be 1c 48 81 3f
       0.24982738 -0.13141797 -0.36988476 1.0100131
000180 fc 9a 05 3f 27 e6 00 3e e4 62 92 be 35 c5 86 3f
       0.5218961 0.12587796 -0.28591073 1.0528933
000190 ad c9 24 bd 60 de 43 bd 67 46 6e bd 98 b3 84 bc
       -0.040231396 -0.047819495 -0.05817261 -0.016198918
0001a0 9a ef 65 3d d3 88 44 bd a6 0b 01 bd 2a 54 22 bd
       0.056136705 -0.04798205 -0.03150525 -0.039631046
0001b0 b4 d5 e2 bc e5 6d cc bd 0d 03 c2 bd c9 95 b6 3d
       -0.027689792 -0.09981898 -0.09473238 0.08915288
0001c0 ce 1b 02 3d 40 1e d4 bc 0b 3f ac bd 1e ef a0 bd
       0.031764798 -0.02589333 -0.08410462 -0.07858108
0001d0 4f 42 c4 3d c8 77 e4 bc f4 01 cf 3c 47 e9 72 bd
       0.0958296 -0.027889147 0.025269486 -0.0593045
0001e0 e6 f1 7e 3d 7a f1 58 3d 20 b6 bf bc 78 59 d7 bc
       0.06224241 0.052964665 -0.023402274 -0.02628778
0001f0 7e 8b 85 bd 79 fd 9b 3d a8 c3 75 3c 18 be e5 bc
       -0.06520747 0.076167054 0.015000261 -0.028044745
000200 1a 48 25 bd 57 39 c6 bd 66 42 21 3d fd f1 4c bd
       -0.040351965 -0.096789055 0.039369963 -0.050035466
000210 ca c0 69 bd f2 39 62 3d 58 b1 c6 bd 84 45 f8 3c
       -0.057068624 0.055231042 -0.097017944 0.030306585
000220 00 04 68 3a 37 ba 7a bd b0 e8 bd bb 61 49 ad 3d
       0.00088506937 -0.061212745 -0.005795561 0.084612615
000230 50 a1 5f bc fe 68 83 bd 4c 64 db 3c 6e c1 a4 bd
       -0.0136493 -0.0641651 0.026781224 -0.08044706
000240 1b 4d 9b bd 23 df 65 bd 33 5e 24 bd 18 fc e0 bc
       -0.07583066 -0.056121003 -0.040128898 -0.027463958
000250 be d0 85 bd 10 f2 a4 bd 60 f0 21 bb 17 84 87 3d
       -0.06533955 -0.08053982 -0.0024709925 0.06616991
000260 14 f9 9c 3c 42 15 5d 3d 6f e6 c7 bd c4 fd f0 3c
       0.019161738 0.05397535 -0.097607486 0.02941788
000270 22 a8 63 3d 93 14 ae 3d a7 7f ab 3d 3c 11 cf 3c
       0.055580266 0.08500018 0.08373957 0.025276773
000280 ea 40 48 3d 0d cc 22 bd 78 11 bd 3c 1e 5b 2e 3d
       0.048890032 -0.03974538 0.023079619 0.042567365
000290 53 8c 65 bd 01 63 b1 3d 98 19 2f bc 6a be 39 3d
       -0.056042027 0.086614616 -0.010687254 0.04534761
0002a0 04 c5 8b bd 12 e5 76 3d ed 12 4c bd e2 bd 0d 3d
       -0.06824687 0.060277052 -0.049822737 0.034604914
0002b0 23 fc 62 bd 80 3b 8d bb 74 c2 f1 bc ed 94 c0 bd
       -0.055416238 -0.0043100715 -0.029511668 -0.09403405
0002c0 25 2e af 3d 00 73 76 bc 00 5c a8 ba a2 87 b5 bd
       0.08553723 -0.015042067 -0.0012844801 -0.088637605
0002d0 1d b9 c1 bd 73 27 9f bd a8 98 7c bc 3d e1 96 bd
       -0.09459136 -0.07771196 -0.015417255 -0.073671795
0002e0 45 47 81 3d 19 77 8e 3d 7d 2b 9e bd d1 35 bc 3d
       0.06312422 0.0695631 -0.077231385 0.09189952
0002f0 80 69 bb bb 9d 01 8a 3d 78 a5 92 bd 4b 74 b3 3d
       -0.0057193637 0.06738589 -0.07160467 0.087624155
000300 c6 78 74 3d 6e 2e 4c 3d 36 72 a0 bd fe 9b 45 3d
       0.05968549 0.049848966 -0.07834284 0.04824447
000310 68 df e9 bc da b0 73 3d 5a d2 16 bd c2 0d 7a 3d
       -0.028548911 0.05949483 -0.0368217 0.061048277
000320 75 fc 8f bf f0 aa a7 3d 4b a8 3e 3e b9 5f bd 3d
       -1.1248919 0.081869006 0.18618886 0.09246773
000330 dd 72 2e be a6 9b 8a bf 03 30 9c 3e a3 1b 94 be
       -0.17036004 -1.082875 0.3050538 -0.28927335
000340 70 f7 3b bf c8 02 a6 bd 99 47 3a bf 09 ba 17 3d
       -0.73424435 -0.08105999 -0.727655 0.03704265
000350 df 1e 96 3e 06 46 1d bd b7 7f 37 be b5 d4 00 be
       0.29320428 -0.038396858 -0.17919813 -0.12581141
000360 1c db 82 3f 59 96 f0 be b5 a9 0c 3e d8 28 51 3f
       1.0223117 -0.46989706 0.13736613 0.8170295
000370 dd ea b3 3e 2d d3 a4 3f 42 99 2f 3e bc 22 f3 bc
       0.35140124 1.2876946 0.17148307 -0.029679649
000380 6b 92 a8 3f 9f af 08 3f 95 f9 eb be 2e 91 80 3f
       1.3169683 0.53392977 -0.46088853 1.0044305
000390 51 8f a6 be 46 2a 50 be 73 70 26 bf 40 ea 04 3f
       -0.32531217 -0.20328626 -0.65015334 0.5191994
0003a0 c7 43 eb 3e ac 62 03 3f 9f ac 52 3e 0e 97 a1 be
       0.45950148 0.51322436 0.20573662 -0.31560558
0003b0 36 08 dc 3e 1f 3a b3 3e 23 7d 20 3e c4 ca 7a be
       0.42975014 0.3500528 0.15672736 -0.24491411
0003c0 40 d0 08 3e 0c 58 0e be 6a 6a 0e be 64 63 ff bd
       0.13360691 -0.13900775 -0.13907781 -0.12470129
0003d0 0f 89 70 bf 47 91 52 3e 08 70 4d bf 45 79 51 be
       -0.93959135 0.20563231 -0.8024907 -0.20456417
0003e0 5c 3c 6f bf ff 4a 9d bd d7 4a 4c bf 3f 38 e2 3e
       -0.93451476 -0.0768032 -0.79801697 0.44183537
0003f0 de 65 5d 3e da 96 b7 3e 87 9e 0b 3e c1 5a f2 be
       0.2162089 0.35857278 0.13634692 -0.47334865

lstm_cell.bias_hh f4 [400]
000000 84 fa 2f 3e 9b a9 f7 bc 40 d2 d8 3c 2d dd a4 3f
       0.17185408 -0.030232241 0.026467443 1.2879997
000010 29 f3 b4 be 3e 5c a4 3e 3b 18 0e bf 57 09 95 bd
       -0.35341766 0.32101625 -0.5550572 -0.07277172
000020 b6 27 88 3f 3c 73 bf bf aa 1a ef 3e 57 23 a6 bf
       1.0637119 -1.4957042 0.4670003 -1.2979535
000030 3b b6 85 bf 0f 60 1f bf 48 02 9d be 8c 4f 38 bd
       -1.0446237 -0.6225595 -0.30665803 -0.044997737
000040 08 52 43 3f 6a f1 54 3e e6 09 58 3d 5f e9 c0 3e
       0.76297045 0.20795217 0.052743815 0.37678048
000050 5f c6 cb be 2b 92 33 bf 7b 16 78 bf b8 ab 32 3f
       -0.39799783 -0.7014491 -0.969093 0.6979327
000060 46 fb c4 bf fa 85 84 3f e3 11 8a bd 81 48 ae 3e
       -1.5389183 1.0353386 -0.06741693 0.3403969
000070 de b9 4d bf 20 c0 f2 be 84 c7 94 be 3b e4 0c bf
       -0.80361736 -0.47412205 -0.29058468 -0.5503575
000080 86 a1 7a 3f 2b a9 7d 3d f7 bf 0e be e0 f7 d3 bd
       0.97902715 0.06192891 -0.13940416 -0.10350013
000090 9b be 71 bf 52 a1 9a 3e 09 44 8c 3f fa 48 16 bf
       -0.94431466 0.30201203 1.0958263 -0.58705103
0000a0 10 ee 99 3f 12 3a e3 3e 99 79 ac be f2 8b 21 bf
       1.2025776 0.44380242 -0.33686522 -0.63104165
0000b0 0e bd 00 3f fb f0 86 3f aa 0a af be 08 88 60 3e
       0.50288475 1.0542291 -0.34187824 0.21926892
0000c0 a9 55 60 3e b4 43 77 bc b1 19 d9 bc 97 d0 f1 be
       0.21907677 -0.015091825 -0.026501508 -0.47229454
0000d0 56 f4 cb be 2e b0 7d bf 2f d9 4c bf c6 63 22 bf
       -0.3983485 -0.99096954 -0.80018896 -0.6343349
0000e0 1e 26 d3 bd 9f 01 3a 3f 5c d7 8c bf d2 e4 b4 3e
       -0.10310005 0.72658724 -1.1003222 0.35330826
0000f0 a9 e6 30 bf e0 55 da be a5 42 30 3d 56 19 5d bf
       -0.6910196 -0.42643642 0.043032307 -0.86366785
000100 1b f4 e9 3e ee 1e 27 3f e8 cd 3a bf 76 39 d9 3d
       0.4569405 0.6528157 -0.7297044 0.10606663
000110 64 e3 a5 3e 95 d6 93 3f c3 94 0f bf 3b ea 1a bf
       0.32400048 1.154986 -0.5608637 -0.6051366
000120 5e 2b 9f 3e 31 20 ab 3e dc 2d 36 3f 90 7c 78 bf
       0.31087774 0.33422998 0.71163726 -0.9706507
000130 cc 4b 78 3f 7d db c9 3f 14 60 4b 3f 47 eb 75 be
       0.96990657 1.5770108 0.7944348 -0.24015532
000140 21 d3 31 be 55 39 4f 3d 7b b1 25 3e 6b cf 87 3e
       -0.17365696 0.050591785 0.16180985 0.26525435
000150 bb b7 49 3f 98 b9 c0 3e d5 ef 68 bd 64 5c 26 bf
       0.78795975 0.37641597 -0.056869347 -0.64984727
000160 fb bf c8 be e8 9f 5a 3f 5c 71 6f 3f 6d 58 c4 3d
       -0.3920897 0.8540025 0.9353235 0.095871784
000170 0a 94 9d 3e fd 89 b5 bd d5 89 da be 89 a5 6d 3f
       0.30777007 -0.0886421 -0.42683282 0.9283071
000180 a9 fb f0 3e 3a 32 2d 3e 26 42 96 be 2f 66 84 3f
       0.47067 0.16913691 -0.29347342 1.0343684
000190 8f 19 cb 3d c1 d4 90 3d dd 08 b9 bd c0 d2 3c 3c
       0.09916984 0.070718296 -0.09034894 0.011524856
0001a0 83 b9 b8 bd d8 5a 50 3c 37 e5 7b bd 28 6c 63 bc
       -0.090197586 0.012716971 -0.061497893 -0.013880767
0001b0 e8 1b ca bc cc 74 c1 bc e5 53 9f bd 7d 82 93 3d
       -0.02467151 -0.023615263 -0.077796735 0.07202623
0001c0 32 1f 1f 3d f2 93 78 3d 60 73 49 bb e0 10 ee bc
       0.03884811 0.060687967 -0.0030738935 -0.029060781
0001d0 d8 86 9b bc 6c ee c5 bc 60 2d 4c bb 46 f0 70 3d
       -0.018985197 -0.02416154 -0.0031154975 0.058822893
0001e0 00 6b 9e bd 98 5a 72 bc d9 63 a9 3d 38 75 c0 bc
       -0.077352524 -0.014792107 0.082709976 -0.023493394
0001f0 0e 24 ab bd c8 4e b2 bd 82 07 3e 3d c4 6c ce 3c
       -0.08356486 -0.087064326 0.04639388 0.025198348
000200 77 1f 95 3d 13 53 48 bd 8d 77 73 bd c8 be 81 bd
       0.07281392 -0.04890735 -0.059440184 -0.06335217
000210 e5 4a ac 3d ed 94 62 bd 91 c2 c7 3d 40 bf 02 bd
       0.084127225 -0.055317808 0.097539075 -0.03192067
000220 3c 19 07 bd 5d 3d 6a bd 0d 62 65 bd 80 a9 66 bc
       -0.03298305 -0.057187427 -0.05600171 -0.014078498
000230 d1 54 81 3d 23 b7 a1 bd cf 43 93 3d bd 75 c6 3d
       0.063150056 -0.07896259 0.07190668 0.096904255
000240 d7 9e c4 3d 73 4e 53 bd 5d 3f 96 3d 27 a2 cc 3d
       0.09600609 -0.051588487 0.07336304 0.099918656
000250 fa 24 73 3d 20 4c aa bc e0 94 a9 bc e9 05 c4 3d
       0.059361435 -0.020788252 -0.020700872 0.0957144
000260 b3 8b 61 bd b0 af 4a 3c b0 2a 9e bb 40 4b bc bd
       -0.05506487 0.012370989 -0.004826866 -0.0919404
000270 fe 6f 5a 3d d8 a7 c0 bc 72 3d 48 3d 9b 52 b8 3d
       0.05332946 -0.023517534 0.048886724 0.09000131
000280 80 c6 fc bc 46 af 56 3d a0 f3 ac 3b 49 31 97 3d
       -0.03085637 0.052413248 0.005278066 0.07382447
000290 d4 55 cf bc 21 91 be 3d 82 b1 63 3d d4 30 e5 bc
       -0.02530948 0.09305025 0.055589207 -0.027977385
0002a0 60 ec 45 3b 97 c9 bb 3d 54 cb e1 bc 00 5a 99 3a
       0.0030200705 0.091693096 -0.027562775 0.0011699796
0002b0 a6 e7 7c 3d f9 f2 b6 3d 11 b4 a1 3d 3d 7f b5 3d
       0.061744355 0.08933062 0.07895673 0.088621594
0002c0 85 4a 84 3d 0a 8e 04 3d c4 bd db 3c 74 65 a0 bc
       0.06459526 0.03236202 0.026823886 -0.019579627
0002d0 98 72 af 3c 20 83 b9 bc 90 e7 0a bd 77 06 6b bd
       0.021416947 -0.022645533 -0.03391224 -0.057379212
0002e0 7c 83 f8 3c c0 08 77 bb 18 03 b0 bc b2 e5 16 3d
       0.030336134 -0.0037694424 -0.02148585 0.03684015
0002f0 26 af 21 3d e2 68 30 3d 10 39 37 bd ac 45 e4 3c
       0.039473675 0.043068774 -0.044732153 0.027865253
000300 66 9f 3a 3d 3d df a0 bd 20 f5 a1 bd b4 a0 84 bd
       0.04556217 -0.07855079 -0.07908082 -0.06475964
000310 62 1e 7a 3d 20 0e 5d bd 5f 05 88 3d 0b c5 b6 bd
       0.06106413 -0.05396855 0.066416495 -0.08924302
000320 58 14 86 bf 32 5a ec 3d dd c2 26 3e 7f d0 12 3e
       -1.0474958 0.11540641 0.16285272 0.14337347
000330 49 3a 39 be 0b 5b 8c bf 10 a2 61 3e 16 1b 85 be
       -0.1808864 -1.0965284 0.22034478 -0.25997227
000340 3c 89 61 bf d6 49 b2 ba 67 f2 34 bf e4 fd 16 3d
       -0.8810003 -0.0013602327 -0.70682377 0.036863223
000350 4f 9e 94 3e 18 73 b7 bd 42 ca 9c be 88 2d 27 bd
       0.2902703 -0.08957499 -0.3062306 -0.040814906
000360 f8 74 87 3f 4f 41 ff be 8b ec cb 3d c6 3a 58 3f
       1.0582571 -0.49854514 0.09957226 0.8446468
000370 60 33 ce 3e 97 db a5 3f 38 32 91 3d 39 d1 92 bc
       0.4027357 1.2957639 0.070896566 -0.01792203
000380 f5 de a8 3f 73 7d 2c 3f 15 97 02 bf 47 ba 6e 3f
       1.3193041 0.6737892 -0.5101178 0.93252987
000390 85 b2 fe be 9b 9f 0d be 47 d4 3e bf 29 f6 10 3f
       -0.49745575 -0.13830416 -0.7454266 0.5662561
0003a0 a2 db 01 3f da 7a 1c 3f fb f7 8c 3e 54 ee ac be
       0.5072576 0.61124957 0.27532944 -0.3377558
0003b0 30 5d d0 3e 69 2a ba 3e 01 82 39 3e 9f c4 51 be
       0.40696096 0.3636048 0.18115999 -0.20485161
0003c0 37 88 6d 3d 01 21 7d be 28 d3 07 be 41 4f 4c be
       0.057991233 -0.24719621 -0.13264143 -0.19952108
0003d0 04 40 80 bf fd bb b3 3e 5c 42 58 bf 92 29 15 be
       -1.0019536 0.3510436 -0.84476256 -0.14566639
0003e0 c4 4c 68 bf 5a cf 55 bc cd 86 5d bf b0 09 9f 3e
       -0.90742135 -0.013049925 -0.86533815 0.31062078
0003f0 2c d6 84 3e c2 51 ab 3e 9d 10 95 3e 73 e2 cd be
       0.2594465 0.33460814 0.29114237 -0.4021183
